…
+-----------------------------------------------------------------------------------------+
| Processes:                                                                              |
|  GPU   GI   CI        PID   Type   Process name                              GPU Memory |
|        ID   ID                                                               Usage      |
|=========================================================================================|
|  No running processes found                                                             |
+-----------------------------------------------------------------------------------------+
cuda
Tesla V100-SXM2-32GB
PaiNN(
  (zi): Embedding(100, 128)
  (Lm): Message(
    (Ls): Sequential(
      (0): Linear(in_features=128, out_features=128, bias=True)
      (1): BatchNorm1d(128, eps=1e-05, momentum=0.1, affine=True, track_running_stats=True)
      (2): SiLU()
      (3): Dropout(p=0.5, inplace=False)
      (4): Linear(in_features=128, out_features=384, bias=True)
    )
    (Lrbf): Sequential(
      (0): Linear(in_features=20, out_features=384, bias=True)
      (1): BatchNorm1d(384, eps=1e-05, momentum=0.1, affine=True, track_running_stats=True)
    )
  )
  (Lu): Update(
    (Luu): Linear(in_features=3, out_features=3, bias=False)
    (Luv): Linear(in_features=3, out_features=3, bias=False)
    (Ls): Sequential(
      (0): Linear(in_features=256, out_features=128, bias=True)
      (1): BatchNorm1d(128, eps=1e-05, momentum=0.1, affine=True, track_running_stats=True)
      (2): SiLU()
      (3): Dropout(p=0.5, inplace=False)
      (4): Linear(in_features=128, out_features=384, bias=True)
    )
  )
  (Lr): Sequential(
    (0): Linear(in_features=128, out_features=64, bias=True)
    (1): BatchNorm1d(64, eps=1e-05, momentum=0.1, affine=True, track_running_stats=True)
    (2): SiLU()
    (3): Dropout(p=0.5, inplace=False)
    (4): Linear(in_features=64, out_features=1, bias=True)
  )
)
Epoch: 1	TL: 6.571e-01	VL: 2.378e-01	 2.378e-01	 lr:0.0005
Epoch: 2	TL: 2.056e-01	VL: 3.559e-02	 1.367e-01	 lr:0.0005
Epoch: 3	TL: 3.325e-02	VL: 2.333e-02	 8.001e-02	 lr:0.0005
Epoch: 4	TL: 2.187e-02	VL: 1.736e-02	 4.868e-02	 lr:0.0005
Epoch: 5	TL: 1.695e-02	VL: 2.224e-02	 3.546e-02	 lr:0.0005
Epoch: 6	TL: 1.430e-02	VL: 1.024e-02	 2.285e-02	 lr:0.0005
…
