…
|  No running processes found                                                             |
+-----------------------------------------------------------------------------------------+
cuda
Tesla V100-PCIE-32GB
<torch.optim.lr_scheduler.ReduceLROnPlateau object at 0x7fbffe04dab0>
Namespace(seed=0, target=7, data_dir='data/', batch_size_train=100, batch_size_inference=1000, num_workers=0, splits=[110000, 10000, 10831], subset_size=None, num_message_passing_layers=3, num_features=128, num_outputs=1, num_rbf_features=20, num_unique_atoms=100, cutoff_dist=5.0, lr=0.0005, weight_decay=1e-06, num_epochs=1000)
PaiNN(
  (zi): Embedding(100, 128)
  (Lm): Message(
    (Ls): Sequential(
      (0): Linear(in_features=128, out_features=128, bias=True)
      (1): SiLU()
      (2): Linear(in_features=128, out_features=384, bias=True)
    )
    (Lrbf): Linear(in_features=20, out_features=384, bias=True)
  )
  (Lu): Update(
    (Luu): Linear(in_features=3, out_features=3, bias=False)
    (Luv): Linear(in_features=3, out_features=3, bias=False)
    (Ls): Sequential(
      (0): Linear(in_features=256, out_features=128, bias=True)
      (1): SiLU()
      (2): Linear(in_features=128, out_features=384, bias=True)
    )
  )
  (Lr): Sequential(
    (0): Linear(in_features=128, out_features=64, bias=True)
    (1): SiLU()
    (2): Linear(in_features=64, out_features=1, bias=True)
  )
)
Epoch: 1	TL: 2.689e-01	VL: 5.233e-02	LR:0.0005
Epoch: 2	TL: 3.543e-02	VL: 1.874e-02	LR:0.0005
Epoch: 3	TL: 2.025e-02	VL: 1.554e-02	LR:0.0005
Epoch: 4	TL: 1.435e-02	VL: 9.004e-03	LR:0.0005
Epoch: 5	TL: 1.249e-02	VL: 1.229e-02	LR:0.0005
Epoch: 6	TL: 1.169e-02	VL: 7.844e-03	LR:0.0005
Epoch: 7	TL: 9.927e-03	VL: 8.227e-03	LR:0.0005
Epoch: 8	TL: 9.646e-03	VL: 7.251e-03	LR:0.0005
…
